Lunar-Lander/new_results/current_model_700.pth (torch_old, 14174 bytes, 4 tensors)

fc1.weight f4 [256, 8]
000000 78 f0 df 3f e6 ca 16 3e 1e 86 e6 3f 74 67 e9 3f
       1.749526 0.14725837 1.8009679 1.8234696
000010 26 4f 88 bd 06 22 bc bf 1a 7a 8f bf f3 91 57 bf
       -0.06655721 -1.4697883 -1.1209137 -0.84207076
000020 bc 82 5c bf b6 54 8b 3e d1 67 fb 3e 56 35 08 c0
       -0.86136985 0.27213067 0.49102643 -2.1282554
000030 44 43 34 40 f6 52 41 bf 3e 4d 5e bf 96 3d ca be
       2.8166056 -0.75517213 -0.8683661 -0.3950011
000040 f5 ec 1f 3f ba 57 69 c1 56 8d 54 3e c4 86 ff bf
       0.6247094 -14.583918 0.2075704 -1.9963002
000050 33 c4 c0 3f 60 5b b2 bf d7 3f 8e be 62 be 5b 3e
       1.5059875 -1.3934135 -0.2778308 0.21459344
000060 5c 28 c3 bf 58 86 70 3e 99 08 64 c0 60 66 54 c0
       -1.5246692 0.23488748 -3.5630248 -3.3187485
000070 d6 e1 3a c0 dc 42 fd be 55 a5 39 3f b3 fc 86 3f
       -2.920034 -0.49465072 0.725179 1.0545868
000080 7b e4 aa be 1e 1a cf bd ae 01 56 bf 5e 4b 8f bf
       -0.33377442 -0.10112403 -0.83596313 -1.1194875
000090 30 f1 61 40 c3 37 47 3f 96 1c f9 bf 23 15 09 3f
       3.530346 0.7781946 -1.9461849 0.5354788
0000a0 80 4b 5d 3e c9 e0 88 3f af 0e 19 3f ac 93 74 c0
       0.21610832 1.0693599 0.5978803 -3.8215132
0000b0 ee 4a a5 bf f2 4f 5e be 51 b4 a6 3f cf db 2f bf
       -1.2913492 -0.21710184 1.3023778 -0.68694776
0000c0 ca 05 c4 bf 1f d3 8f 3e c9 3f 27 c0 9b 6e 90 bf
       -1.5314267 0.2809076 -2.6132681 -1.1283754
0000d0 0e 0d ee 3f 1d 83 ba bf 97 4b f4 bf 5a a8 02 bf
       1.8597734 -1.4571263 -1.9085568 -0.51038134
0000e0 2a 3c 82 bf 96 82 8f c0 b7 b6 0f 40 7b f4 59 3f
       -1.0174611 -4.4846907 2.245527 0.8513867
0000f0 8e a2 e0 bf b5 62 5a bf 69 27 99 3e 49 29 de bf
       -1.7549608 -0.85306865 0.2991288 -1.7356349
000100 74 b6 0d 3f 12 75 af 3f da 09 05 3f c5 72 ae bd
       0.55356526 1.3707602 0.5196816 -0.08517984
000110 c4 fa 2a bf 0f 89 16 c0 c1 a6 7e 3f fe 2d 50 3f
       -0.6678889 -2.3521154 0.99473196 0.8132018
000120 c1 7c 5e 3f 3c 63 ff bf 3e f4 38 40 85 88 1b 40
       0.8690911 -1.9952159 2.8899074 2.4302075
000130 03 71 3b c0 ac 18 e8 bf 22 11 30 3f 0b d0 f2 3f
       -2.9287727 -1.8132529 0.6877614 1.896974
000140 81 ea 90 bf 6c d4 78 bf 15 7f e4 bd b4 c0 d7 bf
       -1.1321565 -0.9719913 -0.111570515 -1.6855683
000150 8a fd 36 40 13 0c ca bf 02 74 f3 bf d8 26 4e bd
       2.8592248 -1.5784935 -1.9019778 -0.050330013
000160 9b a6 c2 bf 22 18 f3 bf 24 0b 40 c0 1c 32 8c be
       -1.5207094 -1.899174 -3.00068 -0.2738198
000170 23 40 af bf 66 ae f2 be 88 2f 80 3f 37 9d c8 be
       -1.3691448 -0.4739868 1.0014505 -0.39182445
000180 48 ed 80 be 46 41 cf be ce 71 5a 3f 24 4f f8 be
       -0.2518103 -0.40479487 0.853299 -0.4849788
000190 3f 5c 81 3f 2f 32 0f c0 a7 ad 16 c0 d8 99 a4 3f
       1.0106276 -2.237438 -2.354349 1.2859449
0001a0 7e fb 52 40 4c 1a e7 3d 9d 51 2f 40 29 e3 62 c0
       3.2965999 0.112843126 2.7393563 -3.5451148
0001b0 fc 08 0e c0 9d 28 93 be cd 8c e8 bd 4b 47 c8 3e
       -2.2192984 -0.28741923 -0.113549806 0.39116892
0001c0 ad 35 26 c0 b4 30 03 bf d2 eb 0d 40 11 49 90 40
       -2.597026 -0.5124619 2.2175183 4.5089192
0001d0 86 28 55 c0 d9 32 d1 be c5 ff 3c c0 11 90 ff 3d
       -3.3305984 -0.40859106 -2.953111 0.1247865
0001e0 d7 07 f0 bf 42 e7 dd 3f 05 2b 47 3d 1e c8 65 40
       -1.8752393 1.7336199 0.04862501 3.5903392
0001f0 11 61 91 3f 57 e8 45 3f 01 69 db 3f f7 62 83 3f
       1.1357747 0.7730765 1.714142 1.0264577
000200 db 26 a5 3f f1 c3 7a bf 91 ee 96 bf 3e 84 c7 bf
       1.2902483 -0.9795523 -1.1791555 -1.5587232
000210 99 0e 6f 3f 1e 53 93 40 77 f2 c9 bf 35 95 0d c0
       0.9338165 4.603896 -1.5777119 -2.2122319
000220 d4 80 bb 3f 94 69 5e 3f ae 39 1f 40 47 fc 25 c0
       1.464869 0.8687985 2.4878955 -2.5935228
000230 3b 6a 32 bf 4e c7 9e be 2a e0 75 bf 53 cc 5e 3f
       -0.69693345 -0.31011432 -0.9604517 0.87030524
000240 a3 07 83 bf 77 ac 3e bc 37 a7 b6 bc 3c a2 06 c0
       -1.0236706 -0.0116377985 -0.022296531 -2.103652
000250 0b 9c 78 40 5f d0 0e 40 ad 1d 9b bf 10 e2 53 bf
       3.884524 2.231468 -1.2118431 -0.8276682
000260 a6 fd 01 3f e8 bf 4a 3f 1f 25 9b 3e 93 55 a7 bf
       0.5077766 0.79199076 0.3030176 -1.307299
000270 33 f0 07 c0 08 ad ad c0 ff e6 15 c0 e4 c0 7e 3f
       -2.1240356 -5.427372 -2.342224 0.9951308
000280 63 e2 dd 3e be 84 43 bf 65 12 58 c0 f1 91 2d bf
       0.43336782 -0.76374424 -3.3761227 -0.67800814
000290 03 1c 43 40 b4 b1 b6 3e 1a fa 0c 40 9b 0a c2 3f
       3.0485847 0.35682452 2.202765 1.5159487
0002a0 14 08 19 40 e4 97 31 40 f7 0d a3 3f 52 00 c6 40
       2.391118 2.7748957 1.2738637 6.187539
0002b0 85 32 0d 40 83 e4 36 be 7b ee 50 3e 76 f7 61 bf
       2.2062085 -0.17860608 0.20403473 -0.8826822
0002c0 a3 92 5d bf f4 cf 01 3e e3 82 6a 3f cb a8 fb bf
       -0.86551875 0.12676984 0.9160597 -1.9660887
0002d0 21 55 53 40 d8 aa 42 bf 97 26 93 be f1 a3 96 bf
       3.3020709 -0.76041937 -0.2874038 -1.1768781
0002e0 52 aa 2a bf 24 ad 5c c0 50 ca 42 40 79 2f b7 bf
       -0.6666614 -3.4480677 3.0435982 -1.4311363
0002f0 83 1c f1 be eb 31 68 bf 2b 65 c2 be 1c 85 a6 3f
       -0.47092065 -0.9070117 -0.3796781 1.3009372
000300 40 b7 e9 3f 56 78 36 3f 15 1b db 3f d3 68 71 3f
       1.8259048 0.7127737 1.711764 0.94300574
000310 a4 52 60 bf 85 2c ad bf d5 7d 1c c0 84 00 d2 bf
       -0.876261 -1.3529211 -2.4451802 -1.6406407
000320 dc d9 1f 40 a0 96 86 bf 7c dc 0d 40 e7 ab 87 3f
       2.497672 -1.0514717 2.2165823 1.0599335
000330 c4 a5 f5 be b8 82 cb bf 99 78 f1 bc 02 40 27 3f
       -0.47978032 -1.5899267 -0.02947645 0.65332043
000340 32 51 53 40 a6 ab 34 c0 f2 de 0d 40 99 c6 31 3f
       3.3018308 -2.8229766 2.2167325 0.6944366
000350 00 d3 c0 be fd 20 dc 3d a1 1c 34 bf 47 96 1e 3f
       -0.3766098 0.107484795 -0.70356184 0.61948055
000360 5e b0 92 3e 21 f8 9a c0 46 04 0a 40 c2 9e 96 be
       0.28650182 -4.842789 2.1565108 -0.29417998
000370 39 f1 3d c0 48 cb 12 be 13 4b d4 be 5a fb 36 3e
       -2.967848 -0.14335358 -0.41463527 0.1786932
000380 71 cf 9d bf af 73 59 3f a7 57 46 3f f9 84 f7 bf
       -1.2328931 0.84942144 0.77477497 -1.9337455
000390 5d c1 a3 3f f9 92 81 bf 03 06 51 be ac 71 2b bf
       1.2793385 -1.0122977 -0.2041245 -0.66970325
0003a0 9d 83 bc bd d4 50 1e c0 b5 cc 50 40 04 94 ec 3f
       -0.09204791 -2.4736834 3.2624943 1.8482671
0003b0 0c 88 36 40 de 36 ce 3f 94 b1 ed 3f 2a 80 93 3d
       2.8520536 1.6110494 1.8569818 0.0720218
0003c0 25 c0 d8 be 01 4c d5 c0 df 42 fb 3e c7 e4 17 3e
       -0.42334095 -6.665528 0.49074456 0.14833365
0003d0 42 0b 9d 3f 24 76 12 40 8f 3f 10 40 ca f1 e0 bf
       1.2269061 2.2884607 2.2538793 -1.7573788
0003e0 36 25 dc 3f 48 7e d3 bf 9c cb 87 40 4e af a9 40
       1.7198856 -1.6522913 4.2436047 5.3026495
0003f0 a5 13 dc bf 15 3e c0 bf 76 73 d9 bf 85 9e b6 be
       -1.7193495 -1.5018946 -1.6988361 -0.35667816

fc1.bias f4 [256]
000000 b8 3c 11 c0 bb 9e bf 3f 8c 9e f8 3f bb 51 af 3f
       -2.269331 1.4970316 1.9423385 1.3696817
000010 2a 4d e0 bf f4 52 c1 3f 0e fe 4a 3e a8 7e 41 c0
       -1.7523549 1.510344 0.19823477 -3.0233555
000020 09 5a b0 3f aa 70 00 c0 78 07 90 bf 6a 2c 80 be
       1.3777477 -2.0068765 -1.1252279 -0.25033885
000030 9a 82 cd bf ec a1 1f 40 1f 3b 1c bf 50 17 df 3f
       -1.6055481 2.494258 -0.6102771 1.742899
000040 85 58 ba be 5c 1c c9 3f 6c 3e 06 c0 23 61 d2 be
       -0.3639566 1.571178 -2.09756 -0.41089734
000050 12 32 88 3e 8f 5c 15 3f 5c ed f6 3f 24 91 b8 bf
       0.266007 0.5834436 1.9291186 -1.4419293
000060 d8 59 10 c0 74 a7 36 c0 26 ce c0 bf e4 3a 31 bf
       -2.2554836 -2.8539705 -1.5062912 -0.69230485
000070 21 34 4c 3f 07 e6 03 bf f8 6a d2 3e 9c d5 29 c0
       0.7976704 -0.5152287 0.41097236 -2.6536627
000080 90 d7 00 c0 b5 36 57 c0 8f 87 83 bf 39 b8 da bf
       -2.013157 -3.362714 -1.0275744 -1.708747
000090 21 50 e0 bf d6 6e 17 c0 e6 ba fa bf 9c 5d a5 bd
       -1.7524453 -2.36614 -1.9588287 -0.08074495
0000a0 b9 b1 85 3f 37 74 ee 3c be 63 c9 bf 5a 5a 9d 3f
       1.0444862 0.02910815 -1.5733564 1.2293198
0000b0 97 1b c7 bf 7f 3a 41 3f 7b 3c bb bf 76 60 bc 3f
       -1.5555295 0.7547988 -1.4627832 1.4716938
0000c0 ad 6d fa be 77 6b 37 c0 04 3d 09 3f 19 c5 a7 bf
       -0.489118 -2.8659341 0.5360873 -1.3107024
0000d0 1c 7f bb bf e7 ea ac 3e eb 85 46 bf ec 9e a8 3f
       -1.4648166 0.33772966 -0.7754809 1.3173499
0000e0 e2 d7 93 3f 23 27 9b 3b 87 97 78 3d 56 89 df bf
       1.1550257 0.00473489 0.060691383 -1.7463787
0000f0 af ed 50 bf 52 8a 11 40 b5 8d 00 40 65 16 e4 3f
       -0.81612676 2.2740674 2.008649 1.7819334
000100 f0 34 88 be b6 74 1f 3f 27 d0 a9 3f 4f 21 99 bf
       -0.26602888 0.6228746 1.3266648 -1.196329
000110 12 d3 f9 bf 33 68 b4 bf a0 d8 97 3f bc 7c 1c 3e
       -1.9517539 -1.4094299 1.1862984 0.15281957
000120 50 e8 01 c0 e0 9d ac bf 36 47 28 c0 97 ee ab 3f
       -2.0298042 -1.348568 -2.6293464 1.3432187
000130 64 b8 1b 3f 53 23 6a bf a7 15 ba 3f bb e2 98 3e
       0.6082823 -0.9146015 1.4537858 0.29860482
000140 b2 61 1f 40 d2 e4 a4 3f 7f 62 02 40 79 45 db 3f
       2.4903378 1.288233 2.0372617 1.7130576
000150 7c 24 bf 3f 8c 5d dd be 2c 16 bf bf 9e 09 a9 3f
       1.4933009 -0.43235433 -1.4928641 1.320606
000160 29 b4 2e 3f e2 b0 d7 bf cd f9 b5 bf a7 21 f0 be
       0.6824365 -1.6850855 -1.4216858 -0.46900675
000170 7f dd 05 40 c3 5a 10 be 09 3b 07 bf 0b 1a 00 40
       2.091644 -0.14097123 -0.52824455 2.0015895
000180 13 9c d9 bf bf a7 29 bf b1 e5 29 bf 3d 2a cb bf
       -1.7000755 -0.66271585 -0.66366106 -1.5872265
000190 a6 37 e0 bf b1 69 ea 3f b0 d1 0a 3e 06 21 01 3f
       -1.7516983 1.8313504 0.13556552 0.50441015
0001a0 c0 c4 ce 3d 18 3c a5 3e 99 30 92 bf 99 80 c0 bf
       0.10096121 0.3227241 -1.1421081 -1.5039245
0001b0 af ea 96 3f fb f1 72 3f 3c 03 b9 bc 13 c2 63 c0
       1.179037 0.9490048 -0.02258455 -3.5587204
0001c0 ab cd 5c bf 60 65 49 3e 45 3f 38 c0 f9 4f 3b 3f
       -0.86251324 0.19667578 -2.8788617 0.73168904
0001d0 64 e4 1c c0 f2 03 72 3f a9 b8 de bf 5e ae 14 bf
       -2.4514399 0.9453727 -1.7400104 -0.58078563
0001e0 5e 10 bf bf 65 a3 d0 3f b6 cc 0e c0 cb a6 88 3f
       -1.492687 1.6299864 -2.2312446 1.0675901
0001f0 b0 df ef 3f 17 96 2e c0 26 3d 6e 3f fc c7 de 3e
       1.8740139 -2.7279108 0.93062055 0.4351195
000200 23 07 d7 bf 27 0e 33 3f a5 6e 0e c0 87 aa b0 be
       -1.6799053 0.6994347 -2.2255032 -0.34505102
000210 db 5f 7f 3f f0 09 e9 bf f4 43 4d 3f 98 96 09 bf
       0.9975564 -1.8206158 0.80181813 -0.5374541
000220 3f 5f d7 3d 07 b5 3a c0 57 4d 8a bf fc 39 35 c0
       0.105162136 -2.917299 -1.0804852 -2.831664
000230 2c 0b 4c 3f 8a d8 e3 bf 39 e6 85 3f 95 24 a5 bf
       0.79704547 -1.7800457 1.0460883 -1.2901789
000240 72 d5 bf be cd ce c1 3f 3a 99 86 3f 0d 70 3e 3f
       -0.37467533 1.5141236 1.0515511 0.74389726
000250 78 69 7a bf 71 63 44 bf 66 bd 57 3f be e1 36 3f
       -0.9781718 -0.76714236 0.84273374 0.71438205
000260 c2 79 14 c0 02 42 85 be 3e 0f 0b 3f c9 bf e2 bf
       -2.3199315 -0.26026922 0.5432013 -1.7714778
000270 36 bf 9e 3e fd b3 3b be 0e 13 c3 bf 0b 57 10 bc
       0.31005257 -0.18330379 -1.524019 -0.008809815
000280 00 65 05 c0 b5 3f 11 40 eb 41 83 be c0 a5 f9 be
       -2.0842896 2.2695134 -0.2563623 -0.4875927
000290 ed 78 ba bf 9c 39 79 3e 68 e0 56 3d 77 28 a1 bc
       -1.4568154 0.24338382 0.052460104 -0.019672615
0002a0 2d 43 a0 bf 06 76 48 be 70 61 7c bd 32 13 70 3f
       -1.25205 -0.19576272 -0.06161636 0.9377929
0002b0 b8 77 31 be 87 7f a2 3f 53 e7 5d 3f 68 f9 9a bf
       -0.17330825 1.2695168 0.866811 -1.2107363
0002c0 93 6f 0b c0 24 d0 93 3f 3d c5 e9 3e 16 70 9c 3f
       -2.178685 1.1547894 0.45658293 1.2221706
0002d0 4f f7 e3 3f 5d ef c9 be 09 c7 b9 bf 0f 08 9b be
       1.7809848 -0.39440432 -1.4513866 -0.30279586
0002e0 50 81 3f 3d 0a 83 2d bf 97 98 dc 3f de 1a c2 bf
       0.04675418 -0.67778075 1.7234067 -1.5164449
0002f0 1f 45 d6 bf d2 c1 a6 bf 0e 3b be bf 27 83 7a 3f
       -1.6739844 -1.3027899 -1.4861772 0.9785637
000300 df 04 5b bf 69 1f f0 3f 3d 92 b4 be 64 68 87 be
       -0.8555431 1.8759586 -0.3526782 -0.2644683
000310 a0 05 84 bd ac a8 c5 bf 96 c6 e4 3f bb 58 a5 bf
       -0.064463854 -1.54421 1.7873104 -1.2917703
000320 89 eb 33 bf fb 58 cb 3f bc 92 eb bf eb ff 9b 3f
       -0.70281273 1.588653 -1.8404155 1.2187475
000330 49 97 00 3f db ca 54 3f bd 87 86 3e c9 33 51 be
       0.5023084 0.8312203 0.26275435 -0.2042991
000340 04 74 a8 3f be e5 11 bf 3c 21 37 c0 d5 74 be 3f
       1.3160405 -0.56991184 -2.8614035 1.4879404
000350 51 3c 97 3d 1d eb 2d bf b1 75 b3 3f 75 8d 4f bf
       0.07384551 -0.6793688 1.4020292 -0.8107522
000360 f6 fe 83 3e 8c 26 de 3e 48 26 65 3f 9e e0 c8 3e
       0.25780457 0.43388784 0.8951154 0.3923387
000370 38 a9 6d 3f 56 a8 04 40 04 0e 84 bf 79 7d 82 bf
       0.9283633 2.0727744 -1.0316777 -1.0194541
000380 1d 57 31 bf 8b 56 89 be 47 fe 1f 3f ff 1c 84 be
       -0.6927355 -0.2682384 0.6249737 -0.25803372
000390 42 82 59 be 15 0e a3 bf ca 4b 9a bf d5 9d 91 3f
       -0.21241096 -1.2738672 -1.2054379 1.1376292
0003a0 0e 4f 28 bf cd 4a 8b 3d e0 4d 57 3f c4 78 36 c0
       -0.6574563 0.068013765 0.841032 -2.851121
0003b0 67 aa 0d 40 66 be f4 bf c5 a7 36 3f fe ba 1e c0
       2.2135255 -1.9120605 0.71349746 -2.480163
0003c0 07 32 31 c0 1b 03 e0 3f ad fd 18 c0 0c e3 a2 3d
       -2.7686784 1.7500948 -2.3904831 0.07953462
0003d0 f2 4a a0 3f f9 74 1d c0 78 c0 a4 3f c9 70 d0 bf
       1.2522871 -2.4602644 1.2871237 -1.6284419
0003e0 8a ec f4 bf 2c 33 88 bf 1e 2f 26 40 12 b4 01 40
       -1.9134686 -1.0640616 2.5966258 2.0266156
0003f0 90 0b 56 3f 51 1e ed bf c9 82 f2 bf 97 15 f7 bf
       0.8361139 -1.8524877 -1.8946162 -1.9303464

fc2.weight f4 [4, 256]
000000 18 44 3c bf b6 9c 1b 40 80 b0 69 40 88 e2 c5 bf
       -0.735414 2.4314399 3.6513977 -1.5459757
000010 f5 83 3e c0 44 2e aa bf 7e 7f 8c bf 7e 87 3f c0
       -2.976804 -1.3295369 -1.0976408 -2.9926448
000020 ef 15 62 40 9f 4b 14 40 63 20 a4 bf 64 f4 ab be
       3.5325887 2.3171155 -1.2822384 -0.33584893
000030 0b c6 fe bf 52 d6 9b bf 5c ed 0b c0 83 bc 8e 3f
       -1.9904188 -1.217478 -2.1863623 1.1151279
000040 29 ac a7 c0 7a bd be bf 93 6e 8a c0 ef b3 96 c0
       -5.2397656 -1.4901574 -4.325998 -4.7094646
000050 97 d3 8b bf 3c 8a b3 bf 38 16 5a 40 7d e7 6f 3f
       -1.0923947 -1.4026561 3.4076061 0.937126
000060 1d 8a 15 c0 6e dc 16 3f 57 01 24 c0 89 06 1d 3f
       -2.3365548 0.589301 -2.5625818 0.61338097
000070 42 21 87 3f cf 69 b1 40 9c 05 18 3f e0 7e 89 c0
       1.0557024 5.544166 0.5938356 -4.2967377
000080 2c 3d 5e c0 6a fa 59 c0 8c b5 f2 bd 57 9c 3a 3f
       -3.4724836 -3.405909 -0.118510336 0.72894806
000090 f7 be b9 3e 0d 34 1d c0 7f f9 22 c0 25 61 a2 bf
       0.36278507 -2.456302 -2.546478 -1.2685896
0000a0 28 e3 61 bf 2f 9d 0f 3f 49 47 5b 40 2d b5 19 bf
       -0.8823724 0.5609922 3.426226 -0.6004208
0000b0 7e b8 44 c0 97 a9 92 bf 4e 83 d2 bf 48 0e f2 bf
       -3.0737605 -1.1458005 -1.6446321 -1.8910608
0000c0 45 7d b0 40 c2 a0 25 c0 c1 28 26 c0 c0 13 ae be
       5.5152917 -2.5879369 -2.5962374 -0.33999443
0000d0 ce 35 4d c0 ef ed 35 c0 a3 be a3 3f 9c f9 b2 40
       -3.206409 -2.8426473 1.2792553 5.59297
0000e0 70 54 16 c0 af 42 a8 bf 92 16 59 c0 3d 9a 4c 40
       -2.3489037 -1.314535 -3.3920026 3.196914
0000f0 20 20 0d c0 47 5d 6b 40 3d e5 4b 40 a3 a7 5d 40
       -2.2050858 3.6775682 3.1858666 3.4633567
000100 5b e3 37 c0 2f f0 b0 bf 93 43 83 bf 9e d9 d4 bf
       -2.8732517 -1.3823298 -1.0254997 -1.6628911
000110 56 a2 2d c0 f6 51 a6 40 4b 77 9b 40 78 56 3d 40
       -2.7130332 5.197505 4.858312 2.9584026
000120 26 fa 5f bf f9 0b 8f c0 d9 a3 1a c0 23 43 8e 3f
       -0.8749107 -4.4702115 -2.4162505 1.1114239
000130 66 de 23 c0 fe 1e 96 c0 9d f1 26 c0 5b 34 0c 40
       -2.5604491 -4.691283 -2.608497 2.1906955
000140 06 0b e4 3e ea 3a c7 3f 2e aa 1b bf 5e 3c 7f bf
       0.4453966 1.5564854 -0.6080655 -0.9970149
000150 b1 73 7b bf b8 c2 55 c0 95 20 93 3f 18 2d 01 c0
       -0.98223406 -3.3400097 1.1494318 -2.0183773
000160 14 12 06 c0 d9 b9 2c 3f 36 13 a2 c0 97 6a 43 c0
       -2.0948534 0.6747108 -5.064845 -3.0533807
000170 0b 8c 80 40 fd 5c 15 40 f7 79 65 c0 38 04 46 bf
       4.017095 2.3338006 -3.5855691 -0.7735019
000180 7d b8 42 c0 ac e0 f9 bf 00 ad a0 40 51 c5 20 c0
       -3.0425103 -1.952169 5.021118 -2.5120432
000190 fa bd b6 bf e6 4b 81 40 5f 3b 9b 40 34 b1 41 c0
       -1.4276726 4.040515 4.8509974 -3.0264406
0001a0 97 8a c3 bf cc 5a c4 3e ee a8 6b 3e 6d 27 99 c0
       -1.5276669 0.38350523 0.2301366 -4.7860627
0001b0 28 35 c8 3f 48 66 1b be 0e 78 18 40 b0 b8 3e c0
       1.5641222 -0.15175736 2.3823276 -2.9800224
0001c0 63 9c 15 40 5c 7b 16 be 2f c7 e7 be c1 f5 ba bf
       2.33767 -0.14695495 -0.45269153 -1.4606248
0001d0 cb 91 24 40 be 95 c6 bf b5 3e 9f 40 62 78 10 40
       2.5713985 -1.5514448 4.9764047 2.2573476
0001e0 e3 71 aa be 6b d2 f0 40 64 df 7e c0 94 e9 20 ba
       -0.33290014 7.525686 -3.9823847 -0.00061383215
0001f0 6a b7 e3 3f 30 67 17 be e3 0d 9e 40 d8 60 06 40
       1.7790349 -0.14785457 4.939195 2.0996609
000200 22 00 4e c0 bc 3b c8 40 23 b0 30 3f e1 bf a2 3f
       -3.218758 6.257292 0.69018763 1.2714807
000210 34 40 59 3e 80 79 2c c0 dd 44 fd bf 38 cb a1 bf
       0.21215898 -2.6949158 -1.978664 -1.2640142
000220 91 7b a2 bf d0 f8 eb bf e8 8f 83 c0 10 53 92 3f
       -1.269396 -1.8435307 -4.1113167 1.1431599
000230 3e 8f 0b c0 e1 84 a1 c0 1c cf 2d 40 87 34 5f c0
       -2.1806178 -5.0474706 2.715766 -3.487581
000240 9b 4e 46 40 e1 fc 8f bf 13 01 10 40 3e 79 85 be
       3.0985477 -1.1249048 2.2500656 -0.26069063
000250 cc 80 15 c0 2f 1f 9b 40 9a e6 17 bf 76 32 53 bf
       -2.3359861 4.8475566 -0.59336245 -0.8249887
000260 6b d4 03 c0 0e 0e 8e 40 b3 3a ae 3e 5a 79 c9 3e
       -2.05984 4.4392157 0.3402916 0.39350396
000270 33 2a b5 40 93 a4 fa 40 8b 71 e6 bf c8 29 a9 3f
       5.6614013 7.8325896 -1.80034 1.3215876
000280 74 54 2e c0 8f fd db bf f1 2b 0f bf be 36 20 c0
       -2.7239046 -1.7186755 -0.55926424 -2.5033412
000290 37 36 1d c0 24 8b d3 3f ff 02 8b 40 b1 97 a1 40
       -2.456434 1.6526837 4.3441157 5.049767
0002a0 56 50 40 bf 09 49 a7 3f 30 5e 90 40 56 64 30 bc
       -0.7512258 1.3069164 4.5114975 -0.010766109
0002b0 05 ea 90 3f 5c 76 70 bf ae 5a 1f 40 33 40 b8 bf
       1.1321417 -0.939306 2.4899096 -1.4394592
0002c0 0c 74 a1 bf 53 84 ac bf 56 0a 95 be 74 1c 82 40
       -1.261354 -1.3477882 -0.29109448 4.0659733
0002d0 96 3d 4e c0 0e 15 5f 40 31 c8 ba 3f e6 81 a1 40
       -3.222509 3.48566 1.4592344 5.0471067
0002e0 3f 16 06 40 47 b7 7b bf 75 77 30 40 3c a5 98 bf
       2.0951078 -0.98326534 2.757291 -1.1925426
0002f0 b6 80 d9 c0 9a b2 50 bf 89 ab 29 c0 1c d4 79 bf
       -6.796962 -0.81522524 -2.6510947 -0.9758928
000300 9a 80 03 c0 1f d2 cc bf bd fa d4 3f 3c a0 1e 40
       -2.0547242 -1.6001624 1.6639019 2.47853
000310 ba 40 aa 3f f9 7b f0 40 73 61 7a 40 b9 c8 ac 40
       1.3301003 7.5151334 3.9121978 5.3995023
000320 cf 37 d0 bf ee c6 a0 bf 98 40 20 c0 02 81 7e 40
       -1.6267031 -1.2560709 -2.5039425 3.976624
000330 9f bb b9 bf ed fd ad bf 5a 02 dd be 12 a4 49 c0
       -1.4510382 -1.3593117 -0.43165857 -3.150639
000340 c4 77 41 c0 90 07 5c c0 0d cf 08 bf 8e b6 ea bf
       -3.022935 -3.4379616 -0.53440934 -1.8336961
000350 3d be 12 c0 41 11 6a c0 37 c9 fa 3f 17 82 23 c0
       -2.2928612 -3.657303 1.9592656 -2.554815
000360 01 ad 82 40 66 3d 8a 3f 83 69 e2 bf 8b 05 31 c0
       4.0836186 1.0799987 -1.768845 -2.7659633
000370 42 1b 3a bf 08 5e 0e bf 5e 35 6e 3f 67 d2 9c be
       -0.7269784 -0.5561223 0.9305018 -0.30629274
000380 d7 0b 34 c0 13 77 14 40 5a ff 8d bf f5 9a ca 3c
       -2.8132226 2.3197677 -1.1093552 0.024732092
000390 7b f9 4e c0 30 ef 10 c0 b2 92 e5 bf c2 65 00 c0
       -3.233977 -2.2645988 -1.7935393 -2.0062108
0003a0 1a 0c 59 bf 4b 19 c4 40 87 36 52 c0 df a0 49 c0
       -0.8478409 6.1280875 -3.284578 -3.1504438
0003b0 92 e5 30 c0 20 ca 62 c0 d7 93 fd be 27 f7 a7 c0
       -2.7640119 -3.5435867 -0.49526855 -5.24892
0003c0 60 69 28 c0 dd 27 b1 bf 84 7b ac c0 43 87 b9 bf
       -2.6314316 -1.384029 -5.3900776 -1.4494404
0003d0 6c fb ce be d4 e0 08 c0 c8 a7 25 c0 67 47 39 40
       -0.40426195 -2.1387224 -2.5883656 2.894983
0003e0 56 4a 56 c0 94 fa 53 c0 fa af 99 40 e2 7a 70 40
       -3.348287 -3.312169 4.8027315 3.7575002
0003f0 f3 aa b3 bf bc 4f 80 40 32 d6 79 40 29 b3 59 c0
       -1.4036545 4.009733 3.9036984 -3.40156

fc2.bias f4 [4]
000000 cb d9 fb 3d ff 74 ab be 4d b3 07 3f fe f6 46 3f
       0.122974 -0.33487698 0.53007966 0.7772063
